hw1/net/anbncn_srn3_70.pth (torch, 2071 bytes, 6 tensors)

H0 f4 [3]
1.0071877 -0.9071795 -0.61909544
00000000: 87eb 803f ea3c 68bf 0a7d 1ebf

W f4 [3, 3]
-0.45685944 -0.7631523 -0.9006872 -1.8461311 0.29100183 -1.3112628 0.99561095 -0.12506557
1.413543
00000000: 7be9 e9be f35d 43bf 7093 66bf 064e ecbf
00000010: 31fe 943e 76d7 a7bf 5ce0 7e3f 3011 00be
00000020: faee b43f

U f4 [3, 3]
0.86468667 -0.86262673 -1.4988377 -0.7494027 0.69824046 1.2573833 -0.055920947 0.5316448
0.90092856
00000000: 1b5c 5d3f 1bd5 5cbf ead9 bfbf dbd8 3fbf
00000010: e3bf 323f f0f1 a03f 5d0d 65bd e019 083f
00000020: 41a3 663f

hid_bias f4 [3]
-0.33198455 -0.3684813 -0.94240713
00000000: e1f9 a9be 95a9 bcbe 9841 71bf

V f4 [3, 3]
6.785635 -0.06674402 -3.1200576 -2.0776966 1.3776474 0.51442707 -2.7434525 -4.4362597
4.380111
00000000: ec23 d940 17b1 88bd 06af 47c0 fbf8 04c0
00000010: c056 b03f 7eb1 033f ba94 2fc0 d7f5 8dc0
00000020: df29 8c40

out_bias f4 [3]
-3.4243646 -0.8095626 3.0791166
00000000: ca28 5bc0 7f3f 4fbf 3f10 4540
