hw1/net/anbncn_srn3_30.pth (torch, 2071 bytes, 6 tensors)

H0 f4 [3]
00000000: 46fb 763f a322 5ebf 1708 14bf
0.9647716 -0.867716 -0.57824844

W f4 [3, 3]
00000000: c6fd c9be c8b2 72bf a730 b3bf d1d0 c4bf
00000010: 9b83 983e 9a88 8dbf 6240 6c3f 1030 18be
00000020: 8b6f 983f
-0.39451426 -0.9480405 -1.3999223 -1.5376226 0.29787907 -1.1057312 0.9228574 -0.14862084
1.190904

U f4 [3, 3]
00000000: c4f1 653f 998b 55bf 362e 9ebf f0be 22bf
00000010: 667a 243f 6c59 8c3f fc26 a0bd 1d2c 033f
00000020: 0563 3d3f
0.8982203 -0.83416134 -1.2357852 -0.635726 0.64249265 1.0964789 -0.07819936 0.51239187
0.73979217

hid_bias f4 [3]
00000000: e5a4 abbe 4155 c0be aea8 50bf
-0.33524242 -0.37565044 -0.81507385

V f4 [3, 3]
00000000: 3668 cd40 637d 9bbe 924c 29c0 4c74 fdbf
00000010: 0fd6 ac3f 1584 c93e fdb6 11c0 a917 74c0
00000020: fdc2 6c40
6.418971 -0.303691 -2.6452985 -1.9801116 1.3502825 0.39358583 -2.2767937 -3.813944
3.6994011

out_bias f4 [3]
00000000: c232 41c0 3c8b 1fbf 2ce9 2840
-3.018723 -0.6232183 2.6392317
