hw1/net/anbncn_srn3_140.pth (torch, 2071 bytes, 6 tensors)

H0 f4 [3]
000000 4c 9f 7c 3f 5e ae 63 bf 47 ac 31 bf
       0.9868057 -0.8893794 -0.694035

W f4 [3, 3]
000000 5e 1a 17 bf 57 0d 90 bf 4a dc 80 be d5 53 55 c0
       -0.5902461 -1.1254071 -0.25168067 -3.3332417
000010 28 7d 98 3e 6c 29 db bf bd 92 9d 3f 15 ea c0 3c
       0.29782987 -1.7122016 1.2310406 0.023549119
000020 19 1a ea 3f
       1.8289214

U f4 [3, 3]
000000 44 24 7c 3f 70 b6 62 bf 8b 32 05 c0 57 4f 80 bf
       0.98492837 -0.8855963 -2.08121 -1.0024213
000010 89 c5 51 3f 31 53 ee 3f 5f 30 27 3e 41 f4 2b 3f
       0.8194204 1.8619138 0.16327046 0.67169577
000020 90 e4 8f 3f
       1.1241627

hid_bias f4 [3]
000000 af 3a 96 be e7 2e 9f be 50 35 9a bf
       -0.29341647 -0.3109047 -1.204752

V f4 [3, 3]
000000 94 a1 ca 40 65 d0 6f 3e 63 6b 5c c0 e1 76 14 c0
       6.332224 0.2341934 -3.4440544 -2.3197558
000010 30 56 9a 3f c3 26 9b 3f 02 51 48 c0 4c f7 a8 c0
       1.2057552 1.2121204 -3.1299443 -5.2801876
000020 8d 97 a2 40
       5.081

out_bias f4 [3]
000000 85 2d 63 c0 9c 37 ce bf f5 ba 5e 40
       -3.5496533 -1.6110721 3.480161
