hw1/net/anbncn_srn3_60.pth (torch, 2071 bytes, 6 tensors)

H0 f4 [3]
000000 96 cb 80 3f 0a 33 68 bf 03 43 1c bf
       1.006213 -0.9070288 -0.6103975

W f4 [3, 3]
000000 21 2f e5 be 2a b8 4b bf d1 fe 73 bf a5 8c e0 bf
       -0.4476252 -0.7957789 -0.95310694 -1.7542921
000010 71 36 94 3e 69 45 a2 bf dd cd 79 3f 9d 10 13 be
       0.28947785 -1.2677432 0.9757975 -0.14361806
000020 c8 86 af 3f
       1.3713007

U f4 [3, 3]
000000 01 a1 5f 3f 8b c7 5b bf 93 b8 b8 bf cd f1 39 bf
       0.8735505 -0.85851353 -1.4431328 -0.72634584
000010 c8 5f 2d 3f 87 82 9c 3f f3 e2 86 bd 0f 76 04 3f
       0.67724276 1.2227334 -0.06586256 0.51742643
000020 e2 56 5d 3f
       0.864607

hid_bias f4 [3]
000000 f8 27 ac be eb 3b c1 be 1a b9 69 bf
       -0.33624244 -0.37741026 -0.9129807

V f4 [3, 3]
000000 00 bd d9 40 c4 47 d2 bd 13 53 44 c0 2b 48 03 c0
       6.8043213 -0.102675945 -3.0675704 -2.0512798
000010 d3 d8 b2 3f 78 6f e1 3e 7e b6 29 c0 e6 d5 8a c0
       1.397242 0.44030356 -2.6517634 -4.3386106
000020 70 13 88 40
       4.2523727

out_bias f4 [3]
000000 73 07 57 c0 f9 33 43 bf c3 0d 40 40
       -3.3598297 -0.7625118 3.00084
