hw1/net/anbncn_srn3_120.pth (torch, 2071 bytes, 6 tensors)

H0 f4 [3]
0.9722882 -0.8727413 -0.7133986
00000000: e1e7 783f f96b 5fbf 4aa1 36bf

W f4 [3, 3]
-0.5409896 -0.87084514 -0.4333665 -2.5415428 0.30261183 -1.5564071 1.1469495 -0.0064338725
1.6424118
00000000: 4b7e 0abf b5ef 5ebf 37e2 ddbe a3a8 22c0
00000010: f0ef 9a3e 5938 c7bf 3ecf 923f 3cd3 d2bb
00000020: 8d3a d23f

U f4 [3, 3]
0.91406775 -0.8666844 -1.898427 -0.90831256 0.7751079 1.5997238 0.08705175 0.6428958
1.0529709
00000000: 5800 6a3f 07df 5dbf a8ff f2bf 2c87 68bf
00000010: 796d 463f c0c3 cc3f 3048 b23d d294 243f
00000020: c0c7 863f

hid_bias f4 [3]
-0.30008376 -0.31654692 -1.104467
00000000: 94a4 99be 7012 a2be 2d5f 8dbf

V f4 [3, 3]
6.500124 0.12165223 -3.3313503 -2.2863925 1.2644231 1.0561494 -3.0996573 -4.927809
4.9257503
00000000: 0401 d040 ce24 f93d d834 55c0 4154 12c0
00000010: 9ed8 a13f e72f 873f c960 46c0 9cb0 9dc0
00000020: bf9f 9d40

out_bias f4 [3]
-3.5338755 -1.3390518 3.3700178
00000000: 042b 62c0 0d66 abbf 5fae 5740
