hw1/net/anbn_srn2_0.pth (torch, 2071 bytes, 6 tensors)

H0 f4 [2]
0.0005882103 0.00035704474
00000000: 2032 1a3a bc31 bb39

W f4 [2, 2]
-0.0008110289 -0.0023894035 -0.00036504318 0.0008190908
00000000: 3a9b 54ba 8a97 1cbb 4463 bfb9 41b8 563a

U f4 [2, 2]
-0.0009787938 0.0009838004 3.991055e-05 -0.0014708593
00000000: df4a 80ba ddf2 803a a065 2738 d9c9 c0ba

hid_bias f4 [2]
0.00049356656 0.0013395376
00000000: b162 013a 6c93 af3a

V f4 [2, 2]
-0.0012611828 8.2973216e-05 -0.001091344 0.0015248812
00000000: 464e a5ba e801 ae38 6e0b 8fba 86de c73a

out_bias f4 [2]
-0.00025463395 0.00076679914
00000000: 6480 85b9 0503 493a
