hw1/net/anbncn_srn3_110.pth (torch, 2071 bytes, 6 tensors)

H0 f4 [3]
00000000: 5d87 7d3f 7edc 63bf e768 2abf
0.9903467 -0.8900832 -0.6656632

W f4 [3, 3]
00000000: 54d1 04bf de18 47bf 81ae 05bf 5888 13c0
00000010: b9a5 993e 9f8e c0bf 1f52 8e3f 7aa0 01bd
00000020: 2e3e cb3f
-0.5188191 -0.7777232 -0.52219397 -2.3051968 0.3000925 -1.5043525 1.1118811 -0.031647183
1.5878351

U f4 [3, 3]
00000000: e2c8 653f 8b89 5cbf a3cc e6bf 8c30 5dbf
00000010: 4a42 413f c7d8 c03f 2992 4e3d 5c9a 1f3f
00000020: cb0c 843f
0.8975965 -0.86147374 -1.80312 -0.864022 0.75491774 1.5066155 0.050432358 0.6234491
1.0316404

hid_bias f4 [3]
00000000: 918d 9bbe e633 a7be 781d 89bf
-0.30381444 -0.32656783 -1.0712118

V f4 [3, 3]
00000000: 0ea7 d240 fb6a 8c3d 50cb 51c0 5e30 10c0
00000010: 4cb6 a53f 43ec 713f 8707 44c0 c55f 99c0
00000020: 29cc 9a40
6.5828924 0.068563424 -3.2780342 -2.252952 1.2946258 0.9450113 -3.0629594 -4.7929406
4.837422

out_bias f4 [3]
00000000: c3a2 61c0 132e 9abf 5033 5440
-3.5255592 -1.2045311 3.3156319
