hw1/net/anbn_srn2_40.pth (torch, 2071 bytes, 6 tensors)

H0 f4 [2]
00000000: 2f58 023f 8268 913f
0.5091581 1.1360018

W f4 [2, 2]
00000000: b0d3 67bf fd0b 95bf f078 713f 3569 e93f
-0.90557384 -1.1644284 0.9432516 1.8235232

U f4 [2, 2]
00000000: f680 3f40 317a ee3d 30aa 1ec0 e03f 4d3f
2.9922462 0.116444 -2.4791374 0.8017559

hid_bias f4 [2]
00000000: 7b8f ec3c f54b 9e3e
0.02887701 0.30917326

V f4 [2, 2]
00000000: 9ed3 71c0 75c0 7140 6afc f93e 1dc4 f9be
-3.778541 3.7773716 0.4882539 -0.48782435

out_bias f4 [2]
00000000: e509 1ac0 4811 1a40
-2.406854 2.4073048
