hw1/net/anbncn_srn3_0.pth (torch, 2071 bytes, 6 tensors)

H0 f4 [3]
00000000: 36c9 1abb 0067 a8ba a047 d2b7
-0.0023618466 -0.0012848079 -2.5067304e-05

W f4 [3, 3]
00000000: 7918 fa3a 6ac1 1cbb 0ef0 a4ba d082 08bb
00000010: 1043 143a bce2 ad39 a8bf c638 d000 8bb8
00000020: 6578 94ba
0.001908078 -0.0023918995 -0.0012583749 -0.0020829923 0.0005655745 0.00033166062 9.4770745e-05 -6.628188e-05
-0.0011327384

U f4 [3, 3]
00000000: 92a8 84b9 2023 9bba a09e 893a e551 4c3a
00000010: 164d fdb9 a666 633b 947e 6e39 32bb 93ba
00000020: b04e fab8
-0.00025302597 -0.001183603 0.0010499544 0.00077941857 -0.00048313354 0.0034698634 0.00022744603 -0.0011270999
-0.00011935586

hid_bias f4 [3]
00000000: 3b99 3f3a 7ef0 9c3a f2c6 143b
0.0007308905 0.0011973528 0.0022701588

V f4 [3, 3]
00000000: e8d6 df3a e7b2 7fba 5c00 0aba 0a40 10bb
00000010: d5dc 823a ce04 b03a f4d1 1439 90b7 ff39
00000020: 4443 e83a
0.0017077597 -0.00097541366 -0.0005264336 -0.0022010827 0.0009984026 0.0013429166 0.00014192594 0.00048774155
0.0017720242

out_bias f4 [3]
00000000: 8065 c939 cca6 bf39 400c 043a
0.0003841333 0.00036554632 0.0005037226
