hw1/net/anbncn_srn3_80.pth (torch, 2071 bytes, 6 tensors)

H0 f4 [3]
0	0x3f82054c	1.0157866
1	0xbf6a48a8	-0.91517115
2	0xbf22b8dd	-0.6356333

W f4 [3, 3]
0	0xbef35f39	-0.47533587
1	0xbf38b51a	-0.7215134
2	0xbf4265e0	-0.759367
3	0xbff581d1	-1.9180242
4	0x3e961ce9	0.29318932
5	0xbfacd96c	-1.3503852
6	0x3f82627b	1.0186304
7	0xbddcdc5f	-0.1078422
8	0x3fb9de5e	1.4520986

U f4 [3, 3]
0	0x3f5f0f10	0.8713236
1	0xbf5d0c82	-0.8634721
2	0xbfc8a74f	-1.5676059
3	0xbf45f40d	-0.77325517
4	0x3f35a9f7	0.7096247
5	0x3fa7e5e7	1.3117036
6	0xbd195330	-0.03743285
7	0x3f0d20fc	0.55128455
8	0x3f6eb1be	0.93239963

hid_bias f4 [3]
0	0xbea7d081	-0.32776263
1	0xbeb83a13	-0.35981807
2	0xbf77bffc	-0.9677732

V f4 [3, 3]
0	0x40d92aaa	6.786458
1	0xbd2dde36	-0.042448245
2	0xc04a8200	-3.1641846
3	0xc008864e	-2.1331973
4	0x3fabe1aa	1.3428242
5	0x3f28d0cd	0.65943605
6	0xc03683b0	-2.8517876
7	0xc090228c	-4.504217
8	0x40907d0f	4.515266

out_bias f4 [3]
0	0xc05cc64d	-3.4496033
1	0xbf66a3a0	-0.9009342
2	0x4048c252	3.1368604
