hw1/net/anbncn_srn3_20.pth (torch, 2071 bytes, 6 tensors)

H0 f4 [3]
0	0x3f627955	0.8846639
1	0xbf49e832	-0.78869927
2	0xbf025b85	-0.509209

W f4 [3, 3]
0	0xbeb94c37	-0.3619096
1	0xbf7cbfb4	-0.98730016
2	0xbfdb9c03	-1.7156986
3	0xbfbd7e07	-1.4804085
4	0x3e9a96b8	0.30193114
5	0xbf82725f	-1.0191153
6	0x3f66dc57	0.9017996
7	0xbde54e6d	-0.11196599
8	0x3f87f6b7	1.0622166

U f4 [3, 3]
0	0x3f61d1bd	0.8821066
1	0xbf4ff0cc	-0.812268
2	0xbf920837	-1.1408757
3	0xbf1769c1	-0.5914574
4	0x3f1d127d	0.61356336
5	0x3f88b19a	1.06792
6	0xbdc77e0b	-0.09740838
7	0x3f09a8aa	0.53772986
8	0x3f33a051	0.701665

hid_bias f4 [3]
0	0xbeaa1f40	-0.33226967
1	0xbeb74703	-0.35796365
2	0xbf479f0a	-0.7797705

V f4 [3, 3]
0	0x40c1918b	6.0490165
1	0xbf11057c	-0.56648993
2	0xc00d2d3e	-2.2058864
3	0xbffb69b6	-1.9641635
4	0x3f9dd665	1.2331053
5	0x3f0bbbcc	0.5458343
6	0xc0049983	-2.0718696
7	0xc058c05d	-3.386741
8	0x4056d721	3.3568804

out_bias f4 [3]
0	0xc0307b1c	-2.757514
1	0xbf24984c	-0.64294887
2	0x401a45ed	2.410518
