hw1/net/anbncn_srn3_10.pth (torch, 2071 bytes, 6 tensors)

H0 f4 [3]
00000000: bbba 4d3f 9d98 35bf 39ed debe
0.80363053 -0.70935994 -0.43540362

W f4 [3, 3]
00000000: 9b68 a5be 1fb5 77bf 11be cdbf cd16 b3bf
00000010: 987c 993e 918c 5dbf c420 603f 1070 25bd
00000020: eaf1 663f
-0.3230637 -0.96760744 -1.6073629 -1.3991333 0.2997787 -0.8654261 0.87549996 -0.040390074
0.9021288

U f4 [3, 3]
00000000: c1a0 583f 2b2c 45bf 9ea4 82bf b629 03bf
00000010: 82e6 0a3f e6ae 893f d086 e3bd 7cc0 133f
00000020: 51b1 303f
0.8462029 -0.7702052 -1.0206487 -0.5123552 0.54257977 1.07565 -0.11109698 0.5771558
0.69020563

hid_bias f4 [3]
00000000: 223c a8be fd2e a9be dbee 37bf
-0.32858378 -0.33043662 -0.7184884

V f4 [3, 3]
00000000: 9402 9e40 acc9 93bf 9697 a9bf 8784 f5bf
00000010: 65a0 5a3f 40ce 893f c582 dcbf 74d2 1ec0
00000020: 379c 2f40
4.9378147 -1.154592 -1.3249385 -1.9181069 0.8540099 1.0766068 -1.7227408 -2.481595
2.7439096

out_bias f4 [3]
00000000: eb63 12c0 6c63 62bf 6b82 0540
-2.2873485 -0.88432956 2.086085
