hw1/net/anbncn_srn3_100.pth (torch, 2071 bytes, 6 tensors)

H0 f4 [3]
0.9869303 -0.88675356 -0.7322209
00000000: 77a7 7c3f 4802 63bf d472 3bbf

W f4 [3, 3]
-0.49893582 -0.7253192 -0.6164677 -2.171503 0.29650757 -1.4526795 1.078843 -0.05836811
1.5327066
00000000: 8474 ffbe 85ae 39bf d4d0 1dbf e8f9 0ac0
00000010: d7cf 973e 67f1 b9bf 8717 8a3f 6613 6fbd
00000020: bb2f c43f

U f4 [3, 3]
0.87564963 -0.8612368 -1.711763 -0.82499236 0.72987044 1.423574 0.015561279 0.59679645
1.002219
00000000: 932a 603f 047a 5cbf 0d1b dbbf b332 53bf
00000010: cad8 3a3f ac37 b63f bcf4 7e3c a7c7 183f
00000020: b648 803f

hid_bias f4 [3]
-0.31037152 -0.33837825 -1.038395
00000000: 04e9 9ebe ea3f adbe 21ea 84bf

V f4 [3, 3]
6.654347 0.037748154 -3.2493775 -2.203874 1.3186132 0.8213714 -2.9931083 -4.6799173
4.7250156
00000000: 69f0 d440 cf9d 1a3d cdf5 4fc0 460c 0dc0
00000010: 51c8 a83f 6545 523f 168f 3fc0 e2c1 95c0
00000020: 5433 9740

out_bias f4 [3]
-3.5175624 -1.0914723 3.2681112
00000000: be1f 61c0 5db5 8bbf bc28 5140
