hw1/net/anbn_srn2_50.pth (torch, 2071 bytes, 6 tensors)

H0 f4 [2]
0.57784986 1.2554786
00000000: f8ed 133f 86b3 a03f

W f4 [2, 2]
-0.96077836 -1.1667663 1.0195167 1.9423679
00000000: 92f5 75bf 9958 95bf 867f 823f 839f f83f

U f4 [2, 2]
3.2160165 0.08600889 -2.7652628 0.7433738
00000000: 37d3 4d40 6e25 b03d 11fa 30c0 bf4d 3e3f

hid_bias f4 [2]
0.05603364 0.3258723
00000000: 8883 653d bcd8 a63e

V f4 [2, 2]
-3.8701081 3.8688393 0.48619714 -0.4860656
00000000: daaf 77c0 109b 7740 d5ee f83e 97dd f8be

out_bias f4 [2]
-2.4990683 2.4995418
00000000: bcf0 1fc0 7ef8 1f40
