hw1/net/anbn_srn2_30.pth (torch, 2071 bytes, 6 tensors)

H0 f4 [2]
0	0x3ed35b2a	0.4128049
1	0x3f8ce589	1.1007549

W f4 [2, 2]
0	0xbf549039	-0.83032566
1	0xbf9457f4	-1.1589341
2	0x3f59f21c	0.85135055
3	0x3fd8619d	1.6904789

U f4 [2, 2]
0	0x402f37f7	2.7377908
1	0x3e0487f2	0.12942484
2	0xc00aee33	-2.1707885
3	0x3f5b6c0c	0.8571174

hid_bias f4 [2]
0	0x3c43f605	0.011960511
1	0x3e8db664	0.27678216

V f4 [2, 2]
0	0xc067fafb	-3.6246936
1	0x4067e7cc	3.6235228
2	0x3ee34ece	0.4439606
3	0xbee3166b	-0.4435304

out_bias f4 [2]
0	0xc00f539e	-2.2394786
1	0x400f5b08	2.239931
