hw1/net/anbncn_srn3_160.pth (torch, 2071 bytes, 6 tensors)

H0 f4 [3]
0	0x3f8034c5	1.0016104
1	0xbf67f7b8	-0.90612364
2	0xbf2c2121	-0.6723805

W f4 [3, 3]
0	0xbf272205	-0.65286285
1	0xbfb7d46b	-1.43617
2	0xbdc79ce6	-0.09746723
3	0xc08cb64a	-4.397252
4	0x3e951d4f	0.29123923
5	0xbff3d5cf	-1.9049624
6	0x3fa9dac0	1.3269882
7	0x3d1baae2	0.038004763
8	0x4005410a	2.0820947

U f4 [3, 3]
0	0x3f892fd2	1.0717719
1	0xbf6b0b7b	-0.9181439
2	0xc012c69c	-2.2933722
3	0xbf8db9dd	-1.1072346
4	0x3f5cb3c3	0.86211795
5	0x400b02e2	2.172051
6	0x3e6eb3e5	0.23310812
7	0x3f2ffa8f	0.687417
8	0x3f937bd7	1.1522168

hid_bias f4 [3]
0	0xbe967ae2	-0.29390627
1	0xbe9fbbb7	-0.31197903
2	0xbfaa9ee6	-1.3329742

V f4 [3, 3]
0	0x40c63a32	6.194604
1	0x3eb8f62d	0.36125317
2	0xc065651a	-3.5842957
3	0xc0141304	-2.3136606
4	0x3f90a3dc	1.1300006
5	0x3fa8ebe8	1.3196993
6	0xc0465116	-3.098699
7	0xc0b720ca	-5.7227526
8	0x40a65aea	5.198598

out_bias f4 [3]
0	0xc0630161	-3.5469592
1	0xbff22066	-1.8916137
2	0x40649a8a	3.5719323
