hw1/net/anbncn_srn3_190.pth (torch, 2071 bytes, 6 tensors)

H0 f4 [3]
000000 a0 b4 81 3f b9 c7 6b bf d3 f5 25 bf
       1.0133247 -0.9210163 -0.64828223

W f4 [3, 3]
000000 ba 0d 3c bf d0 26 dd bf 31 f8 ba bc b8 5e 9d c0
       -0.73458445 -1.727747 -0.022823425 -4.9178123
000010 a5 3e 8b 3e 7e 98 11 c0 a1 dc bc 3f 15 c6 7e 3d
       0.2719623 -2.2749324 1.4754831 0.062200624
000020 69 cf 1b 40
       2.4345343

U f4 [3, 3]
000000 d2 c6 9b 3f b3 ca 7b bf 85 87 26 c0 e6 1e 9e bf
       1.217005 -0.9835617 -2.6020215 -1.235318
000010 c2 7a 6d 3f b5 06 27 40 bc 2a a6 3e 44 59 34 3f
       0.9276544 2.6097844 0.3245448 0.7044871
000020 a3 df 91 3f
       1.1396374

hid_bias f4 [3]
000000 c5 d9 9d be 2d 87 a3 be 7c d7 c5 bf
       -0.30830207 -0.31939068 -1.5456386

V f4 [3, 3]
000000 00 9e c4 40 e9 08 fe 3e cc f5 71 c0 3f 1e 12 c0
       6.144287 0.49616173 -3.7806273 -2.283096
000010 51 7d 86 3f 52 3e b1 3f 5a e7 40 c0 11 19 cb c0
       1.0506994 1.3847144 -3.0141206 -6.34681
000020 0e fd a9 40
       5.3121405

out_bias f4 [3]
000000 48 4e 5f c0 e8 0a 18 c0 ed 45 6a 40
       -3.489153 -2.3756657 3.660518
