hw1/net/anbn_srn2_80.pth (torch, 2071 bytes, 6 tensors)

H0 f4 [2]
000000 04 47 44 3f c4 fd af 3f
       0.7667086 1.3749318

W f4 [2, 2]
000000 0d 41 85 bf 14 f2 95 bf d9 d6 94 3f db 5e 14 40
       -1.0410477 -1.1714501 1.1628066 2.3182895

U f4 [2, 2]
000000 05 b6 6c 40 9e a0 57 3d f4 3c 57 c0 1c 26 26 3f
       3.6986096 0.05264341 -3.3630953 0.649019

hid_bias f4 [2]
000000 1c b2 df 3d 9e 8d b7 3e
       0.109226435 0.35850233

V f4 [2, 2]
000000 86 52 7f c0 de 3d 7f 40 ee 8e 0f 3f 57 86 0f bf
       -3.9894118 3.988151 0.5607747 -0.5606436

out_bias f4 [2]
000000 3e 52 26 c0 f6 59 26 40
       -2.5987697 2.5992408
