hw1/net/anbn_srn2_20.pth (torch, 2071 bytes, 6 tensors)

H0 f4 [2]
0	0x3e954fe7	0.29162523
1	0x3f89872c	1.0744376

W f4 [2, 2]
0	0xbf37ff30	-0.7187376
1	0xbf8ed1fd	-1.1157833
2	0x3f3b2b5b	0.7311303
3	0x3fc4e6fb	1.538299

U f4 [2, 2]
0	0x4018b857	2.3862512
1	0x3e1f7b8d	0.15574475
2	0xbfe291a8	-1.7700701
3	0x3f620045	0.8828166

hid_bias f4 [2]
0	0xba901441	-0.0010992364
1	0x3e80eff7	0.2518308

V f4 [2, 2]
0	0xc05251c3	-3.2862403
1	0x40523e87	3.2850664
2	0x3eb7298c	0.35773885
3	0xbeb6f10d	-0.35730782

out_bias f4 [2]
0	0xbffa61c7	-1.9561089
1	0x3ffa70a2	1.9565623
