hw1/net/anbncn_srn3_90.pth (torch, 2071 bytes, 6 tensors)

H0 f4 [3]
00000000: b335 7e3f 5e70 64bf 9b39 25bf
0.9930069 -0.8923396 -0.64541024

W f4 [3, 3]
00000000: ab70 fabe 96f7 34bf 5bd1 29bf 8d84 00c0
00000010: 0475 983e 6f43 b3bf 1045 863f f627 abbd
00000020: 647b be3f
-0.48914084 -0.70690286 -0.66335076 -2.0080903 0.29776776 -1.4004954 1.0489826 -0.08357231
1.4881406

U f4 [3, 3]
00000000: 1d22 5e3f 5b05 5dbf 4e4a d1bf 04cf 4cbf
00000010: 688f 383f 908a ad3f 0480 6ebc d8c3 123f
00000020: f177 773f
0.867708 -0.86336297 -1.6350801 -0.8000338 0.7209382 1.3557911 -0.0145568885 0.57330084
0.9666739

hid_bias f4 [3]
00000000: 35da a2be 3cc9 b1be 0f6b 80bf
-0.31807104 -0.34723842 -1.0032672

V f4 [3, 3]
00000000: b6aa d740 c024 ecbb a139 4dc0 d248 0bc0
00000010: a1e0 a93f cacb 413f 79e0 3bc0 9231 92c0
00000020: 0402 9440
6.7395887 -0.0072065294 -3.2066424 -2.1763196 1.3271676 0.7570158 -2.9355757 -4.568551
4.625246

out_bias f4 [3]
00000000: b9ad 5ec0 6847 80bf bedd 4c40
-3.4793532 -1.0021791 3.201034
