hw1/net/anbncn_srn3_50.pth (torch, 2071 bytes, 6 tensors)

H0 f4 [3]
1.0285871 -0.9301462 -0.63253987
00000000: bea8 833f 101e 6ebf 22ee 21bf

W f4 [3, 3]
-0.43400648 -0.84853125 -1.0472803 -1.6816727 0.28953207 -1.2245711 0.9541705 -0.15180153
1.3153205
00000000: 1936 debe 5839 59bf 480d 86bf 0d41 d7bf
00000010: 8c3d 943e bfbe 9cbf 8544 743f dc71 1bbe
00000020: 6c5c a83f

U f4 [3, 3]
0.8842245 -0.853987 -1.3754454 -0.7025088 0.6709553 1.1716145 -0.07124199 0.51072276
0.8296417
00000000: 895c 623f e49e 5abf 980e b0bf 9ed7 33bf
00000010: bac3 2b3f 77f7 953f 52e7 91bd babe 023f
00000020: 6663 543f

hid_bias f4 [3]
-0.34027848 -0.38122174 -0.88733083
00000000: fb38 aebe 7f2f c3be 1d28 63bf

V f4 [3, 3]
6.7637806 -0.14487511 -2.987048 -2.0233626 1.3748463 0.4307585 -2.5453842 -4.242788
4.1122074
00000000: e470 d840 245a 14be cb2b 3fc0 c67e 01c0
00000010: f7fa af3f 618c dc3e 93e7 22c0 ebc4 87c0
00000020: 3497 8340

out_bias f4 [3]
-3.283574 -0.69220877 2.905186
00000000: 1426 52c0 9834 31bf 91ee 3940
