hw1/net/reber_srn2_0.pth (torch, 2071 bytes, 6 tensors)

H0 f4 [2]
00000000: 3ec6 cdba 2a77 b939
-0.001569934 0.00035374734

W f4 [7, 2]
00000000: 6de5 a8ba 2080 8339 cadd 5c3a 1f63 14ba
00000010: 74be 11ba 882b 57b9 cc88 0a39 ee26 a4ba
00000020: c4a2 6b3a 8755 7bba e64c feba 09ff 85ba
00000030: a84e fab8 adc7 3dba
-0.0012885757 0.00025081728 0.0008425383 -0.0005660522 -0.0005559691 -0.00020520214 0.00013211666 -0.0012523809
0.00089887925 -0.00095876347 -0.001940158 -0.0010223101 -0.0001193558 -0.0007239532

U f4 [2, 2]
00000000: 5ef7 aa3a abd4 083b 48b5 8f39 2406 2abb
0.0013043692 0.0020878713 0.0002741015 -0.0025943602

hid_bias f4 [2]
00000000: ab82 06bb 12ed 003a
-0.0020524662 0.0004918139

V f4 [2, 7]
00000000: 3aaf fb3a ebd9 05bb 5876 1c3b 80aa d3b7
00000010: 2e3a 2bbb c08c 9e37 776e 913a 286f 25bb
00000020: 30f1 8839 aa3f 333a 4a2d 03ba 161b d3ba
00000030: 90e5 ae3a 28d8 adba
0.0019202002 -0.0020424079 0.002387425 -2.5232555e-05 -0.0026127207 1.890061e-05 0.0011095543 -0.0025243256
0.0002611964 0.0006837795 -0.0005004002 -0.0016106095 0.0013343561 -0.0013263272

out_bias f4 [7]
00000000: 2f4b 35ba 30c7 343a 1dd6 01ba cf33 8eba
00000010: f070 8638 b0a1 973a a2ec 02bb
-0.0006915805 0.00068961363 -0.0004952865 -0.001084918 6.410654e-05 0.0011568572 -0.001997747
