hw1/net/reber_srn2_20.pth (torch, 2071 bytes, 6 tensors)

H0 f4 [2]
000000 b4 91 d0 3f ad 10 b7 3f
       1.6294465 1.4301964

W f4 [7, 2]
000000 35 0a 16 c0 48 aa 1c 40 4a b2 81 3f 58 d5 76 3f
       -2.344373 2.4478931 1.0132535 0.96419287
000010 bc b9 1e 3f 85 95 a4 c0 38 b9 8c 3f 1d 5e 17 be
       0.6200216 -5.143252 1.0994024 -0.14781995
000020 ea 06 10 bd 9e a8 36 40 36 d5 90 c0 ad cc 79 be
       -0.035162844 2.8540416 -4.5260267 -0.24394484
000030 ac d9 4e 81 98 f6 92 00
       -3.7992396e-38 1.3496444e-38

U f4 [2, 2]
000000 f9 35 a3 bf f3 f7 eb 3f c1 04 ee bf 69 6f 24 3f
       -1.2750846 1.8435043 -1.8595201 0.642325

hid_bias f4 [2]
000000 e8 08 33 3f e4 b5 1a bf
       0.69935465 -0.60433793

V f4 [2, 7]
000000 4e 01 ad 3e e9 7c a1 bf e7 37 87 40 52 50 69 40
       0.33790058 -1.2616245 4.225574 3.6455274
000010 c1 1e 72 c0 19 a3 24 bf 18 cf 0d c0 ff 5e 81 bf
       -3.783127 -0.6431137 -2.215765 -1.0107116
000020 48 e6 55 40 de 4c b7 bf f4 28 08 c0 3a e3 c5 3f
       3.3421803 -1.4320333 -2.1274996 1.5459969
000030 f8 d7 a7 3e 39 f0 0b c1
       0.3278196 -8.746148

out_bias f4 [7]
000000 d4 51 b0 c0 cc e3 96 be 73 ab 3d 3e 63 09 96 3e
       -5.509989 -0.2947067 0.18522434 0.29304036
000010 09 87 85 bf 66 58 02 40 29 e4 7e c0
       -1.0431834 2.0366454 -3.9826758
