hw1/net/reber_lstm4_40.pth (torch, 2459 bytes, 5 tensors)

W f4 [7, 16]
00000000: 4ae1 1540 75aa 273f 9731 3f40 668e 963f
00000010: 4e52 08c0 ec37 1ac0 460c 65bf 7b9d 23c0
00000020: de16 56c0 a9bf 1040 2dea 36c0 84e0 533f
00000030: 3564 1140 2121 0fc0 573e 1d40 9dfc a33f
00000040: fe7f c4be 1472 953f cf92 793f f35a c13f
00000050: 8555 18bf d14c d03f 4a1c a3bf a579 513f
00000060: 38bd aa3f dbc7 a63e 233e 4b3f 8571 483f
00000070: 92e4 d4be b9ce 7a40 79ec 443f 0e81 c13f
00000080: 6af2 3c3f b0c2 ab3f fadb 163f 3d59 e33e
00000090: ecbf 82bf 75d3 b9bf ed89 063d 69a6 553c
000000a0: 8f6d e6bd bdde 42c0 fd63 1a40 9a63 8d3f
000000b0: fd25 4a3f 2593 4640 c94b a83f b91f ed3f
000000c0: 3897 ea3e cc83 a63f 90d0 7bbf 6ecb a23f
000000d0: a05f 313f 1d8a 7c3f 9163 af3e 9dd9 883f
000000e0: 44cf e63e 0b4a 2640 809a afbe 0289 c6be
000000f0: 3cdc 733f 9335 4d40 44bb 203f 09dd a33f
00000100: d42e 1a3e f7d3 173f ac37 ab3f 62ef f83f
00000110: 580a 133f 1b47 813f cc92 ebbe 5c4c 4e40
00000120: ff89 94bf 915b 0d40 1fe6 3a3f ea12 10c0
00000130: 92f4 84bf f98d 3740 b383 9a3f 8762 b6be
00000140: 05e1 8a3c 5014 2d3f 320f 703d a6ab f43e
00000150: d331 a0bf 9d8d c5bf 1d42 b7be 514a c43f
00000160: 835e 8bbe 37cd 11c0 dc72 89be c576 7cbf
00000170: 2eb5 ebbf 7888 2840 01c8 3c3f 7a65 7140
00000180: 116b 8a3e 3b14 dc3d 6561 0c3f 7ab0 2b3f
00000190: 46b1 1340 801e 7c3f 9892 03c0 d799 683f
000001a0: a7b3 09c0 54c5 a5bf 4829 09c0 46b1 a0bf
000001b0: ee97 8640 b0bd 84c0 5824 563e 805e ab3f
2.3418756 0.6549447 2.9874017 1.1762207 -2.1300235 -2.4096632 -0.8947185 -2.5564868
-3.3451457 2.261698 -2.858043 0.8276446 2.2717412 -2.236397 2.45693 1.2811466
-0.383789 1.1675439 0.9748964 1.510588 -0.5950549 1.6273443 -1.2743008 0.8182624
1.3338995 0.32574353 0.7939169 0.7829822 -0.41580635 3.9188673 0.7692333 1.5117509
0.73807395 1.3418789 0.5892941 0.4440402 -1.021482 -1.4517657 0.03284638 0.013040164
-0.112513654 -3.0448449 2.4123528 1.1046021 0.78964216 3.102731 1.3148128 1.8525306
0.45818496 1.3008971 -0.98365116 1.2718332 0.6928654 0.98648244 0.3425565 1.069141
0.45080006 2.5982692 -0.34297562 -0.38776404 0.95257926 3.206395 0.62785745 1.280183
0.15056926 0.5930781 1.3376365 1.9448054 0.5743766 1.0099825 -0.46010435 3.2234106
-1.1604613 2.2087138 0.73007387 -2.2511544 -1.0387137 2.8680403 1.2071441 -0.35622045
0.016953 0.6760912 0.05860824 0.47787207 -1.2515205 -1.5433842 -0.35792628 1.533518
-0.27220544 -2.2781503 -0.26845443 -0.9861873 -1.8414667 2.6333294 0.7374268 3.7718186
0.2703481 0.10746046 0.5483611 0.67066157 2.307695 0.9848404 -2.0558224 0.9085974
-2.15159 -1.2950845 -2.1431446 -1.25541 4.206046 -4.148155 0.20912302 1.3388214

U f4 [4, 16]
00000000: 3bbb 523c aa18 76bf bcfc acbf 09c2 23bf
00000010: b05c 01bf 886e 3fc0 06f2 543f d185 8cbd
00000020: f610 92bf 92a8 773f a6b4 ebbe 2be5 cbbe
00000030: a3c1 693c ba0e dabd bce7 f1bf d338 84bf
00000040: 778a 19bf dbe4 d7bf a1c2 7e3e 4b74 a33e
00000050: 1877 5ebe b09f 08c0 0e8a 703e f165 e4bd
00000060: e4b2 523e 2f0d 303f c63b a3bf 0f5e 3ebf
00000070: 6f84 a13f 92f4 e43f 97f2 88bf 2c8d 9f40
00000080: ca1c ca3f 7665 aabf 4e4d 3cbf 4af5 843e
00000090: 7dc8 5f3f 2eba 48bf ba0c 953f 45e6 db3e
000000a0: c2f2 1c3f c8ec 443d 417c 94bf 86ac 05c0
000000b0: a70e 3e3f 18a0 7bbf c5de 2d3e 2a8c a0bf
000000c0: b456 7dbf cf8c a3c0 994e 3cc0 732f a7bf
000000d0: 06ac f33f 30ab 8f3d 54c9 353f dee2 d0bf
000000e0: ede9 1f3f 78b4 fc3e 2ea9 da3e ca40 b53f
000000f0: 2171 3140 e190 f6bf 268f 9ebf 63fe 7a40
0.012862022 -0.96131384 -1.3514628 -0.6396795 -0.50532055 -2.9911213 0.831818 -0.06861461
-1.1411426 0.9674159 -0.4603626 -0.3982328 0.014267358 -0.1064734 -1.8898845 -1.0329841
-0.59976906 -1.6866716 0.24878933 0.31924662 -0.21725118 -2.1347466 0.23490164 -0.11152256
0.20576054 0.68770117 -1.2752616 -0.7436227 1.261854 1.7887137 -1.0699033 4.985983
1.5790036 -1.3312213 -0.7355546 0.2596839 0.87415296 -0.7840909 1.1644509 0.4294912
0.6130792 0.048077375 -1.1600419 -2.088655 0.7424111 -0.9829116 0.16979511 -1.2542775
-0.98960423 -5.1109385 -2.9422972 -1.3061355 1.9036872 0.07015073 0.7101033 -1.6319234
0.6246632 0.49356437 0.427072 1.4160397 2.7725298 -1.9262964 -1.2387435 3.9217765

hid_bias f4 [16]
00000000: 9207 1f40 6868 1b40 6316 fb3f 41b7 4840
00000010: c1c8 a8be 8624 763b 8a31 71bf 22a2 753f
00000020: 9697 c1be a3a6 7c3e 2ad2 3bbd e197 e0bd
00000030: 9a31 b73f 8ff4 053e 7c6e 4740 5169 3540
2.484837 2.4282475 1.9616207 3.136185 -0.32965663 0.003755839 -0.94216216 0.9595052
-0.37810963 0.24672942 -0.045854725 -0.109664686 1.4312012 0.13081573 3.1161184 2.834553

V f4 [4, 7]
00000000: a32d d63d 16a9 e9bf d793 7e40 fee6 7740
00000010: a1b6 eebf 5e3b 863f 95dc 0cc0 3700 2741
00000020: 86c4 8540 a5e0 a9bf 48bc c3bf 7776 d9bf
00000030: bf00 893f 39e8 3dc1 5f53 3340 2187 0ec0
00000040: ccd3 3840 fe37 2e40 0c47 1bc0 393c 9abc
00000050: 5033 0941 1245 1041 ff8d fabd 60e5 1940
00000060: 7dcb 4540 cc6e 0c3f c068 8bc0 74c6 03c0
0.10457923 -1.8254726 3.9777734 3.8734736 -1.8649484 1.0486867 -2.2009633 10.437552
4.1802397 -1.3271681 -1.5291834 -1.6989278 1.0703353 -11.869195 2.8019636 -2.2269976
2.887927 2.7221675 -2.4262114 -0.018827545 8.575027 9.016863 -0.12234115 2.404625
3.090545 0.5485656 -4.356537 -2.0589876

out_bias f4 [7]
00000000: edd3 d7c0 5492 953e 13c9 6c3f c2a3 393f
00000010: 07a6 333e 476e 1abf 0618 f8c0
-6.74462 0.29213202 0.92494315 0.725155 0.17543803 -0.6032452 -7.7529325
