hw1/net/reber_srn2_30.pth (torch, 2071 bytes, 6 tensors)

H0 f4 [2]
000000 fd 08 c2 3f f9 87 aa 3f
       1.5158993 1.3322746

W f4 [7, 2]
000000 b3 c1 0b c0 f0 01 29 40 f3 25 84 3f 14 75 6a 3f
       -2.1836975 2.6407433 1.0324081 0.915849
000010 14 e9 02 3f 85 eb 9e c0 66 64 89 3f fa 68 54 be
       0.511369 -4.96625 1.0733764 -0.2074317
000020 69 a9 0e bd 7f 8b 35 40 bb ce 93 c0 eb 32 9a be
       -0.03482953 2.8366392 -4.6189857 -0.30116972
000030 ac d9 4e 81 98 f6 92 00
       -3.7992396e-38 1.3496444e-38

U f4 [2, 2]
000000 41 e1 ac bf ec d5 eb 3f 26 70 ec bf 10 dc 22 3f
       -1.3506242 1.8424659 -1.8471725 0.6361704

hid_bias f4 [2]
000000 c2 8f 2b 3f 65 19 31 bf
       0.6701623 -0.69179374

V f4 [2, 7]
000000 14 53 e2 3e 73 a3 ba bf 5b 68 99 40 a3 6d 84 40
       0.4420401 -1.4581131 4.7939887 4.1383834
000010 37 75 8e c0 12 a1 24 bf a4 08 19 c0 31 fd 8f bf
       -4.4518085 -0.64308274 -2.3911524 -1.1249143
000020 49 1a 7a 40 d6 4a 01 c0 03 f6 2f c0 41 4e f2 3f
       3.9078543 -2.0201926 -2.7493904 1.8930131
000030 42 31 36 3e c9 a6 34 c1
       0.17792228 -11.290719

out_bias f4 [7]
000000 d8 41 a8 c0 17 82 b6 be d6 9a c2 3d 35 7d 95 3e
       -5.2580376 -0.35646126 0.09502189 0.29197088
000010 66 df 9b bf ca f6 1c 40 8f 7b b6 c0
       -1.2177551 2.4525628 -5.702583
