hw1/net/reber_lstm4_20.pth (torch, 2459 bytes, 5 tensors)

W f4 [7, 16]
000000 23 e3 22 40 1a 08 25 3f 39 c5 2e 40 d3 71 92 3f
       2.5451133 0.64465487 2.7307875 1.1440986
000010 8c 7a f1 bf 03 48 22 c0 a1 07 56 bf a9 bd 1a c0
       -1.8865523 -2.5356452 -0.8360539 -2.417826
000020 46 fe 57 c0 04 f8 12 40 7b b1 47 c0 88 2d 43 3f
       -3.3748946 2.2963877 -3.1202075 0.7624135
000030 18 93 2b 40 ef 55 f7 bf c5 51 35 40 1a ee 97 3f
       2.680853 -1.93231 2.8331158 1.1869538
000040 94 92 9f be 34 b6 c5 3f bb 79 4c 3f 0d 00 ed 3f
       -0.31166518 1.5446229 0.79873246 1.851564
000050 7d b1 03 bf b3 87 d3 3f 93 df 9c bf 64 95 29 3f
       -0.514427 1.6525787 -1.225573 0.66243577
000060 6b 57 75 3f 3b 5b ac 3e 85 8e 5a 3f 07 dd 49 3f
       0.95836514 0.33663353 0.8537372 0.78852886
000070 7d be db be 18 f6 78 40 53 8e 33 3f 96 2f f8 3f
       -0.4291877 3.8900204 0.70139045 1.9389522
000080 1b 1e 6f 3f 91 7f a6 3f c4 b5 2d 3f 2a e2 17 3f
       0.9340531 1.300768 0.6785548 0.59329474
000090 3c 58 29 bf 16 16 f0 bf b1 53 af 3d 33 cd 82 3d
       -0.6615026 -1.875674 0.08560885 0.06386795
0000a0 af cd 50 3d e5 37 59 c0 3d b7 11 40 f5 14 8f 3f
       0.050977405 -3.3940365 2.276809 1.117827
0000b0 05 52 92 3f 76 63 49 40 40 08 9d 3f 24 5c e6 3f
       1.143128 3.1466956 1.2268143 1.7996869
0000c0 f3 25 b5 3e e2 73 91 3f 85 ae 75 bf ab a4 c4 3f
       0.35380515 1.136349 -0.9596942 1.5362753
0000d0 e0 f1 fb 3e ca 13 13 3f 54 5c 44 3e 56 ed 50 3f
       0.49207973 0.5745207 0.19175845 0.81612146
0000e0 be 62 13 3f 0b 47 10 40 76 f4 be be f4 e9 0f bf
       0.57572544 2.254336 -0.37295884 -0.5621636
0000f0 4c ea 8e 3f ec 1b 09 40 4a 20 e1 3e 18 b5 bb 3f
       1.1165252 2.1423292 0.43969947 1.466464
000100 e1 72 9f 3b 47 11 81 3f 39 1b b4 3f c2 39 1e 40
       0.0048659896 1.0083398 1.4070808 2.4722753
000110 1b d8 07 3f 76 c0 a3 3f 85 df e4 be 1f f3 4a 40
       0.53064126 1.279311 -0.44701782 3.171089
000120 e3 81 9e bf df bf 01 40 ca 31 32 3f fb 09 05 c0
       -1.2383388 2.027336 0.6960722 -2.0787342
000130 8d cd 84 bf 50 07 50 40 d4 3a b2 3f 27 7d f0 be
       -1.0375229 3.2504463 1.3924203 -0.46970484
000140 ac 08 ed 3e 65 15 23 3f 4c 91 49 bd c2 f4 34 3f
       0.4629568 0.6370452 -0.04921083 0.7068597
000150 c7 ab a1 bf 6d 22 76 bf ea 0e 24 be b1 dd e4 3f
       -1.2630547 -0.9614628 -0.16021314 1.7880155
000160 7d f2 bc be 28 c7 f3 bf 9e a8 77 be eb 2d 80 bf
       -0.36903754 -1.9045153 -0.24185416 -1.0014013
000170 75 c7 ac bf 2b b6 20 40 b7 56 42 3f 8b 44 4d 40
       -1.349837 2.5111187 0.75913566 3.2073085
000180 17 1e ec 3e 49 d7 7b 3e 8e e6 59 3f 2a 4b 2c 3f
       0.46116707 0.24593844 0.85117424 0.6730219
000190 81 88 20 40 eb ee f4 3f 9d c8 32 c0 e2 bc 98 3f
       2.5083315 1.9135412 -2.7934945 1.1932642
0001a0 14 cc 17 c0 2c 62 da bf 90 e6 19 c0 0f 2f 8e bf
       -2.371831 -1.706121 -2.4046974 -1.1108111
0001b0 c9 03 81 40 4e 1f 66 c0 31 ca 05 3f 29 e6 99 3f
       4.031712 -3.5956607 0.52261645 1.2023364

U f4 [4, 16]
000000 0f fa 94 bd 49 a0 30 bf 9c fa 8b bf aa 17 35 bf
       -0.072742574 -0.68994576 -1.0935855 -0.70739233
000010 9f 25 d9 be d5 93 2c c0 e3 4d 59 3f b9 d4 f6 bc
       -0.42411515 -2.696523 0.8488447 -0.030130731
000020 0c 2d 85 bf 6b 6b 76 3f c7 1f 26 bf 9b 4a d9 be
       -1.0404372 0.96257657 -0.6489224 -0.42439732
000030 91 db 26 3e 59 bc b8 be 79 97 ed bf 59 b6 64 bf
       0.16294695 -0.36081198 -1.8561851 -0.8934074
000040 fa 2d e1 be e1 a5 e2 bf 56 ad 12 be 40 c8 ee 3e
       -0.4398039 -1.7706872 -0.14323935 0.46637154
000050 71 fc b1 3d f7 cc ec bf 70 dc 81 3e 12 f0 93 bd
       0.086907275 -1.850005 0.25363493 -0.07223524
000060 97 f6 1f 3d a9 cb 00 3f e2 1d 8d bf 83 1d 1c bf
       0.039053526 0.5031076 -1.1024745 -0.6098253
000070 6b 9d a9 3f c9 50 ff 3f fc ed 64 bf f7 33 9a 40
       1.3251165 1.9946529 -0.89425635 4.8188434
000080 04 2a bc 3f 65 c3 c1 bf 98 1a 25 bf 71 93 1e 3f
       1.4700322 -1.5137755 -0.64493704 0.6194373
000090 77 08 5f 3f 28 e7 73 bf 96 d4 92 3f 83 2a e1 3e
       0.8712229 -0.9527459 1.1471126 0.43977746
0000a0 14 b8 2e 3f 2c 25 07 bd 83 f6 9b bf f2 63 03 c0
       0.6824963 -0.032994434 -1.2184604 -2.0529752
0000b0 6f 27 40 3f 81 a7 87 bf 3a f9 0e 3e f0 64 92 bf
       0.7506017 -1.0597993 0.1396226 -1.1437054
0000c0 da ec 30 bf c0 97 97 c0 3e 12 38 c0 57 f4 3c bf
       -0.69111407 -4.737274 -2.8761134 -0.73810333
0000d0 20 cc e9 3f 40 df 14 be c9 dd 12 3f 84 8c c4 bf
       1.8265419 -0.14538288 0.5736967 -1.5355382
0000e0 3e 37 02 3f ee 14 02 3f d8 95 71 3e 45 81 b1 3f
       0.5086554 0.50813186 0.23592317 1.3867575
0000f0 67 8e 1e 40 cb c3 d7 bf b9 53 cd bf 5c 1b 41 40
       2.4774415 -1.6856626 -1.6041175 3.017295

hid_bias f4 [16]
000000 ef 63 1f 40 58 d6 11 40 01 ed f8 3f 12 26 43 40
       2.4904745 2.2787075 1.9447328 3.0491986
000010 b1 ae bf be 54 59 19 3e 43 c0 5c bf 3d 0c 61 3f
       -0.37437966 0.14975482 -0.8623087 0.879093
000020 64 27 bd be 0c d5 85 3e a6 6a 24 3c aa b1 00 be
       -0.36944115 0.26139104 0.010035193 -0.12567773
000030 db 71 c8 3f d5 34 73 3e b4 17 38 40 f4 40 1b 40
       1.5659746 0.23750623 2.8764467 2.4258394

V f4 [4, 7]
000000 4b 7f 32 3f 7e 6c ca bf 6c c6 64 40 b8 fe 5a 40
       0.69725484 -1.5814359 3.5746107 3.4217968
000010 19 1d e0 bf f0 a0 e7 3e 1d fb c0 be 7d 05 24 41
       -1.750888 0.45239973 -0.37691584 10.25134
000020 ed 7c 6c 40 b7 fb 68 bf 5d 85 93 bf a6 e5 9b bf
       3.6951249 -0.91009086 -1.1525074 -1.2179458
000030 bd 40 7f 3f 7a 87 10 c1 8b d6 f7 3f 56 84 00 c0
       0.9970816 -9.033075 1.9362348 -2.0080771
000040 ba 81 1c 40 5c 9c 19 40 2c 82 0e c0 e4 77 98 bd
       2.445418 2.4001684 -2.226695 -0.07444742
000050 01 83 d8 40 6d 04 05 41 b3 a2 98 be 60 2d 08 40
       6.7659917 8.3135805 -0.2981163 2.1277695
000060 9f 79 2a 40 df 4a ce 3e b9 5b 6f c0 49 02 c9 bf
       2.6636732 0.40291497 -3.7399733 -1.5703822

out_bias f4 [7]
000000 78 02 d2 c0 3e 6f a1 3e 44 e6 52 3f 0f a4 2c 3f
       -6.5628014 0.31530184 0.8238261 0.67437834
000010 1f 13 be 3d a3 02 f0 be 23 1d aa c0
       0.09280991 -0.46877012 -5.3160567
