hw1/net/reber_lstm4_50.pth (torch, 2459 bytes, 5 tensors)

W f4 [7, 16]
0	0x4012111c	2.2822943
1	0x3f3bf8ab	0.7342631
2	0x403a8fc2	2.9150243
3	0x3f902c80	1.126358
4	0xc00c1034	-2.188489
5	0xc011775f	-2.2729108
6	0xbf5b8419	-0.8574844
7	0xc025ade5	-2.5887387
8	0xc0552295	-3.3302357
9	0x4013dd71	2.3103907
10	0xc031ba0d	-2.7769806
11	0x3f5910a9	0.84791046
12	0x4008db16	2.138372
13	0xc00ec1e2	-2.2305837
14	0x4010370e	2.2533603
15	0x3fa07f85	1.2538916
16	0xbed55c44	-0.41671956
17	0x3f860ae8	1.0472078
18	0x3f83aaf5	1.0286547
19	0x3fb93697	1.4469784
20	0xbf15895c	-0.5841272
21	0x3fce8623	1.6134685
22	0xbfab8b53	-1.3401893
23	0x3f5e73e7	0.868956
24	0x3fb463dc	1.4092975
25	0x3e97c91b	0.2964562
26	0x3f46da5e	0.7767695
27	0x3f614414	0.87994504
28	0xbf0212cc	-0.5080993
29	0x407d2fe2	3.9560475
30	0x3f46085c	0.77356505
31	0x3fb1001b	1.3828157
32	0x3f5a1d95	0.8520139
33	0x3fa7f15b	1.3120531
34	0x3f16c7d5	0.5889867
35	0x3ecc4963	0.3989974
36	0xbf9ad651	-1.2096654
37	0xbfafc0c6	-1.3730705
38	0x3d3c942d	0.04603975
39	0xbc1f07aa	-0.009706417
40	0xbe0e10c2	-0.1387358
41	0xc03effb4	-2.9843569
42	0x401e93d2	2.4777722
43	0x3f8c408a	1.0957196
44	0x3f39f773	0.726432
45	0x40427b96	3.038793
46	0x3facec4d	1.3509613
47	0x3fed7ef0	1.8554363
48	0x3edccd31	0.431253
49	0x3fa446a9	1.2834064
50	0xbf7bb799	-0.9832702
51	0x3f972655	1.1808573
52	0x3f44fc76	0.76947725
53	0x3f8cce21	1.1000406
54	0x3ebb5b86	0.36593264
55	0x3f8f1c4f	1.1180514
56	0x3ee13b4a	0.43990546
57	0x401e0d84	2.469575
58	0xbeaf276f	-0.34209773
59	0xbeb4687f	-0.35235974
60	0x3f531010	0.82446384
61	0x405a73de	3.413322
62	0x3f0f5b88	0.5599904
63	0x3f9f7aaf	1.2459315
64	0x3e3c4cf4	0.1838873
65	0x3eed71d4	0.46375906
66	0x3fa66b54	1.3001504
67	0x3fea6328	1.831151
68	0x3f14f782	0.58190167
69	0x3f726d3c	0.9469793
70	0xbeea7cd4	-0.4579836
71	0x404dc6ef	3.215267
72	0xbf901ff9	-1.1259757
73	0x400e45c5	2.2230084
74	0x3f3c6380	0.73589325
75	0xc012c5b5	-2.293317
76	0xbf86861c	-1.0509677
77	0x402e4b51	2.723347
78	0x3f907a5e	1.1287344
79	0xbeb42068	-0.35180974
80	0xbd1bc48d	-0.038029242
81	0x3f0b0e9e	0.5431918
82	0x3d86a6da	0.06574793
83	0x3ed9a8ad	0.42511502
84	0xbf9eefaf	-1.2416896
85	0xbfd29993	-1.6453117
86	0xbec1bdee	-0.37840217
87	0x3fb79475	1.434218
88	0xbe564d38	-0.20927894
89	0xc017a235	-2.3692753
90	0xbe91a627	-0.28447077
91	0xbf5b5e26	-0.85690534
92	0xc001fb61	-2.030968
93	0x402089be	2.508407
94	0x3f498dbc	0.78731894
95	0x407d699a	3.9595704
96	0x3e905d6e	0.2819628
97	0x3e2b57cb	0.16732709
98	0x3f0c3558	0.54768896
99	0x3f5f232f	0.8716306
100	0x400af181	2.1709902
101	0x3f526ff3	0.8220207
102	0xbffdd231	-1.982977
103	0x3f51a6c5	0.81895095
104	0xc00cc824	-2.1997156
105	0xbf98583e	-1.1901929
106	0xc0090321	-2.140816
107	0xbfbe1769	-1.4850894
108	0x4084061b	4.1257453
109	0xc086ab68	-4.2084236
110	0x3e6a1ce0	0.22862577
111	0x3fb6f07d	1.4292141

U f4 [4, 16]
0	0x3d0d82cf	0.034548577
1	0xbf895335	-1.0728518
2	0xbfb24f77	-1.3930501
3	0xbf28a494	-0.65876126
4	0xbf0702cd	-0.5273865
5	0xc048e072	-3.138699
6	0x3f54976a	0.8304354
7	0xbd753193	-0.05986173
8	0xbf98e8b6	-1.1946018
9	0x3f7e29a9	0.9928232
10	0xbecae7c9	-0.39629963
11	0xbec701c4	-0.38868535
12	0x3b7c1128	0.0038462374
13	0x3d8cc272	0.06873025
14	0xbff31cdb	-1.8993181
15	0xbf856acd	-1.0423218
16	0xbf201a25	-0.62539893
17	0xbfcc3595	-1.5953852
18	0x3e8f33e2	0.2796927
19	0x3e909660	0.28239727
20	0xbe85f541	-0.26163676
21	0xc00cd3cd	-2.2004273
22	0x3e920d90	0.28525972
23	0xbe08faec	-0.13376969
24	0x3e84bb69	0.25924233
25	0x3f47d9ef	0.78066915
26	0xbfa8ab3a	-1.3177254
27	0xbf4d2f09	-0.80149895
28	0x3f98c0dd	1.1933857
29	0x3fc43e13	1.5331444
30	0xbf8315d3	-1.0241035
31	0x409c7e48	4.890415
32	0x3fcd0c0c	1.6019301
33	0xbfa733af	-1.3062648
34	0xbf420511	-0.7578898
35	0x3e1db5e2	0.15401414
36	0x3f5e6a54	0.86880994
37	0xbf2cfa23	-0.6756918
38	0x3f97bfd9	1.1855422
39	0x3ecf2f53	0.40465793
40	0x3f1a96c6	0.6038631
41	0x3d84c2bd	0.06482456
42	0xbf9c9dc7	-1.223565
43	0xc0077045	-2.1162274
44	0x3f3c5aa5	0.7357581
45	0xbf9180b3	-1.1367401
46	0x3e0def74	0.13860875
47	0xbf9f41f8	-1.2442007
48	0xbf85308a	-1.0405438
49	0xc0a59305	-5.1741967
50	0xc03c0b73	-2.9381988
51	0xbfbc0588	-1.4689188
52	0x3fee053f	1.8595351
53	0x3e14d46f	0.14534162
54	0x3f3de8eb	0.7418353
55	0xbfd66ab6	-1.6751316
56	0x3f2ccd8f	0.6750116
57	0x3f037b9e	0.513605
58	0x3edbbfb9	0.4291971
59	0x3fb5ac54	1.4193215
60	0x40380e48	2.8758717
61	0xc002b760	-2.0424423
62	0xbf981b9e	-1.1883428
63	0x408be892	4.37214

hid_bias f4 [16]
0	0x401df5e0	2.468132
1	0x401dd8f8	2.4663677
2	0x3ffc1541	1.9693986
3	0x40466019	3.0996153
4	0xbe9d20ce	-0.3068909
5	0x3c7ade20	0.015311748
6	0xbf74b9cc	-0.95596004
7	0x3f78a848	0.97131777
8	0xbebe91fa	-0.37220746
9	0x3e5af456	0.2138227
10	0xbd8cdadd	-0.06877682
11	0xbdd03973	-0.101672076
12	0x3facd634	1.350287
13	0x3e2bfe49	0.16796221
14	0x404aad95	3.1668446
15	0x4041d3a3	3.0285423

V f4 [4, 7]
0	0x3dfcde39	0.12347073
1	0xbff0a17b	-1.879928
2	0x4084f3a1	4.15474
3	0x407ecf3c	3.9813986
4	0xbff520e3	-1.9150661
5	0x3f986ccb	1.1908201
6	0xc02276ee	-2.538509
7	0x4123ea6f	10.244735
8	0x408a03be	4.312957
9	0xbfbbfd06	-1.4686592
10	0xbfccd8fc	-1.6003718
11	0xbff005d9	-1.8751785
12	0x3f8fb0c0	1.1225815
13	0xc146793a	-12.404596
14	0x403e0550	2.9690742
15	0xc01413eb	-2.3137157
16	0x403e7f89	2.9765341
17	0x4038a6ea	2.8851876
18	0xc01fee82	-2.4989324
19	0x3d0aba5b	0.03386913
20	0x410beb32	8.744921
21	0x4112c6a0	9.173492
22	0xbdcc9fa6	-0.09991388
23	0x40212257	2.517721
24	0x404dbb59	3.2145598
25	0x3f1d846e	0.61530197
26	0xc091dabd	-4.5579515
27	0xbfebd966	-1.842572

out_bias f4 [7]
0	0xc0d72900	-6.723755
1	0x3e928cb8	0.28622985
2	0x3f66eaba	0.90201914
3	0x3f492636	0.7857393
4	0x3e50df43	0.20397668
5	0xbf25a46a	-0.64704
6	0xc0fcc2a9	-7.898762
