hw1/net/reber_lstm4_30.pth (torch, 2459 bytes, 5 tensors)

W f4 [7, 16]
0	0x401b350f	2.4251134
1	0x3f117da4	0.5683234
2	0x403a0335	2.9064457
3	0x3f9992f3	1.199797
4	0xc004c7db	-2.0746982
5	0xc0236934	-2.553296
6	0xbf5b03de	-0.85552776
7	0xc01f028f	-2.4845312
8	0xc055981c	-3.337409
9	0x400ead78	2.2293377
10	0xc03e7627	-2.9759614
11	0x3f50e362	0.8159696
12	0x401fda91	2.4977152
13	0xc008d9d8	-2.1382961
14	0x402a297d	2.6587822
15	0x3fa29768	1.2702456
16	0xbebdb377	-0.37050983
17	0x3fa8f8c5	1.3200918
18	0x3f651f45	0.8950084
19	0x3fd5b66a	1.6696293
20	0xbf0cd10a	-0.5500647
21	0x3fd3677a	1.6515954
22	0xbfa0a806	-1.2551277
23	0x3f401825	0.7503684
24	0x3f8f26ba	1.1183693
25	0x3ead95f4	0.33903468
26	0x3f4822fc	0.7817838
27	0x3f4c895f	0.7989711
28	0xbee102be	-0.43947405
29	0x4077d302	3.872254
30	0x3f3f22bb	0.7466237
31	0x3fd3c34f	1.6543978
32	0x3f4b0df5	0.7931817
33	0x3fa9b04e	1.3256929
34	0x3f19b2bc	0.6003835
35	0x3ef70ecd	0.4825348
36	0xbf610042	-0.8789102
37	0xbfc66098	-1.5498228
38	0x3d0c306c	0.034225866
39	0x3ca2726c	0.019829951
40	0xbdbc4e45	-0.09194616
41	0xc048a9e9	-3.1353705
42	0x401814f9	2.37628
43	0x3f8cd483	1.1002353
44	0x3f6afbcf	0.9179048
45	0x4049fc5b	3.1560276
46	0x3fa3f1a0	1.2808113
47	0x3ff341ec	1.9004493
48	0x3eeeca79	0.4663885
49	0x3fa4a891	1.2863942
50	0xbf7de5a5	-0.99178535
51	0x3fb1cf59	1.3891402
52	0x3f13e3b2	0.5776931
53	0x3f6621ec	0.8989551
54	0x3e95a2fd	0.29225913
55	0x3f79e5a6	0.9761604
56	0x3f08924e	0.53348243
57	0x402779ea	2.616816
58	0xbeaf6c46	-0.34262294
59	0xbee3b80d	-0.44476357
60	0x3f7e09a6	0.9923347
61	0x4031521e	2.770637
62	0x3f12d8c2	0.57361996
63	0x3fb4f5a2	1.4137461
64	0x3d86a864	0.06575087
65	0x3f4ac6e9	0.7920976
66	0x3fafd1d0	1.3735905
67	0x400858ed	2.1304276
68	0x3f0ea04c	0.55713344
69	0x3f86f5b5	1.0543734
70	0xbeeb30e1	-0.4593573
71	0x404ec20f	3.2305944
72	0xbf9a805d	-1.2070423
73	0x400b1b54	2.173543
74	0x3f363add	0.7118357
75	0xc00b9ade	-2.1813273
76	0xbf84cf84	-1.0375829
77	0x4043283e	3.0493312
78	0x3fa5ea20	1.2962074
79	0xbec8ef4a	-0.39245063
80	0x3e47270d	0.1944849
81	0x3f41ea6e	0.75748336
82	0x3d9b5bc3	0.075858615
83	0x3f00fc86	0.5038532
84	0xbf9e1321	-1.2349588
85	0xbfab85b1	-1.3400174
86	0xbeb237cc	-0.34808195
87	0x3fc9fb1f	1.5779761
88	0xbeaff5f7	-0.34367344
89	0xc00a2cfc	-2.1589956
90	0xbe81a6de	-0.25322622
91	0xbf7e9fe3	-0.9946272
92	0xbfcf7497	-1.6207455
93	0x4030c273	2.7618682
94	0x3f3b9856	0.7327932
95	0x40637c95	3.554479
96	0x3e888560	0.26664257
97	0x3e072220	0.13196611
98	0x3f26b541	0.6512032
99	0x3f1ce94a	0.6129347
100	0x401f1a23	2.4859703
101	0x3f8ee3f3	1.1163315
102	0xc010b61c	-2.261115
103	0x3f6a83a0	0.91607094
104	0xc00ae7e3	-2.1704032
105	0xbfade7d2	-1.3586371
106	0xc00f19c6	-2.235948
107	0xbf95b972	-1.1697218
108	0x4086b95e	4.210128
109	0xc07d43a0	-3.9572525
110	0x3e89cef3	0.26915702
111	0x3fa228bd	1.2668682

U f4 [4, 16]
0	0xbbcd6137	-0.0062676924
1	0xbf4e052d	-0.8047665
2	0xbfa1d58c	-1.2643294
3	0xbf2c24c6	-0.6724361
4	0xbef6089f	-0.48053452
5	0xc0333ddd	-2.8006508
6	0x3f5afd62	0.8554288
7	0xbd9456c7	-0.07243114
8	0xbf8b096b	-1.0862249
9	0x3f7637b5	0.9617875
10	0xbf0244fd	-0.5088652
11	0xbed28a3f	-0.41121098
12	0x3d83f66c	0.064434856
13	0xbe62d539	-0.2215165
14	0xbff0eb7a	-1.8821862
15	0xbf809986	-1.0046852
16	0xbf0b7813	-0.54480094
17	0xbfe20e62	-1.7660639
18	0x3e2e73c6	0.17036352
19	0x3eb8667c	0.3601569
20	0xbd6b23b6	-0.057407103
21	0xc002880b	-2.0395534
22	0x3e5fb522	0.2184644
23	0xbdb872a6	-0.090062425
24	0x3df18c9c	0.11794397
25	0x3f1794b6	0.5921129
26	0xbf9d3a45	-1.2283407
27	0xbf2b84f4	-0.66999745
28	0x3fa17046	1.2612388
29	0x3ff2904b	1.8950285
30	0xbf80fe50	-1.007761
31	0x409ff591	4.9987264
32	0x3fc7ec6c	1.5619025
33	0xbfb418a5	-1.4070021
34	0xbf38b755	-0.7215474
35	0x3ebb54ab	0.36588034
36	0x3f5b51bb	0.85671586
37	0xbf5b5302	-0.85673535
38	0x3f939ebc	1.1532817
39	0x3edf6ee1	0.4363928
40	0x3f28c9c2	0.6593286
41	0x3d70b883	0.058769714
42	0xbf972d15	-1.1810633
43	0xc003f7e0	-2.062004
44	0x3f3cec3d	0.7379797
45	0xbf717de2	-0.94332707
46	0x3e3dccab	0.18535106
47	0xbf976fc0	-1.1830978
48	0xbf62ed93	-0.8864376
49	0xc0a0d189	-5.025578
50	0xc03c80e3	-2.9453666
51	0xbf92192f	-1.1413935
52	0x3ff1dee5	1.8896147
53	0xbc9dc0a8	-0.019256905
54	0x3f34de14	0.70651364
55	0xbfcbd220	-1.59235
56	0x3f1a18a7	0.60193866
57	0x3efbe364	0.49196923
58	0x3ec4c680	0.38432693
59	0x3fb49fcb	1.4111265
60	0x402cdd48	2.701006
61	0xbfedf417	-1.8590115
62	0xbfade72d	-1.3586174
63	0x4064c8a6	3.5747466

hid_bias f4 [16]
0	0x401de786	2.467256
1	0x4017315e	2.3623881
2	0x3ff94e65	1.9477049
3	0x40480ce2	3.1257863
4	0xbeb755c0	-0.3580761
5	0x3d22e678	0.039770573
6	0xbf6bdd33	-0.921344
7	0x3f6d19ab	0.9261729
8	0xbec17b53	-0.377894
9	0x3e86e1c4	0.2634412
10	0xbd4bfbe0	-0.049800754
11	0xbde52735	-0.11189119
12	0x3fbd104f	1.4770602
13	0x3e27445b	0.1633467
14	0x4042e25d	3.045066
15	0x402e6cad	2.725383

V f4 [4, 7]
0	0x3ea84292	0.3286329
1	0xbfddcf21	-1.7328836
2	0x4073f979	3.8121016
3	0x406b8635	3.6800663
4	0xbfe78eae	-1.8090417
5	0x3f4c1ddd	0.7973307
6	0xbfebb7a2	-1.8415415
7	0x412ababf	10.670592
8	0x40806dc4	4.013399
9	0xbf980099	-1.1875182
10	0xbfae7cb5	-1.3631808
11	0xbfc108c4	-1.50808
12	0x3f827b6e	1.0193918
13	0xc131cd1c	-11.112576
14	0x4018f35b	2.3898532
15	0xc0091341	-2.1418002
16	0x402c94f0	2.6965904
17	0x4025e735	2.5922368
18	0xc015c13b	-2.3399189
19	0xbcd4c77e	-0.025974032
20	0x41035bc9	8.2099085
21	0x41107167	9.027686
22	0xbe3f0fe5	-0.18658407
23	0x4013035a	2.2970796
24	0x4039c807	2.9028337
25	0x3ef00e2d	0.46885815
26	0xc082dd12	-4.089486
27	0xbff93b0f	-1.9471148

out_bias f4 [7]
0	0xc0e032cf	-7.006202
1	0x3ea42fa5	0.320676
2	0x3f62d5ea	0.88607657
3	0x3f34e85a	0.7066704
4	0x3e080538	0.13283241
5	0xbf10f944	-0.5663035
6	0xc0e8c59a	-7.2741213
