hw1/net/reber_lstm4_0.pth (torch, 2459 bytes, 5 tensors)

W f4 [7, 16]
00000000: a79a f5bd 22f2 db3e 7373 91be 5d3f 613e
00000010: fdea eb3d e81d 82be cbbc 92be c400 abbe
00000020: 7d86 5ebe 5359 2bbe 1e83 8dbe dcd0 ccbe
00000030: ee1a 67bd ac73 623e 50fa adbd 7076 a83e
00000040: 2fa6 4dbe 36a1 d53e 32c3 f5be a664 c33d
00000050: 28f5 d33d c445 283e 2891 6fbe 1e0d 82be
00000060: 2201 8b3e c0d8 83be 6da0 3cbd 3782 763e
00000070: 826a 3cbe 5808 c33e 0c38 d4be cfac 45bb
00000080: 86eb ccbe 8ca8 cc3e ac75 533e 1904 82bc
00000090: 49c7 2fbc 7aef edbe a512 a1be 2c39 eebe
000000a0: c512 963c 30db 91be 4c4e f83e 96e6 df3e
000000b0: 749b 133c 2409 b43e 0d35 6e3e c0d1 953e
000000c0: c1df bbbe 4a05 b5be fafd c0be 3631 bcbc
000000d0: ebf8 5cbe 4ce6 b53d 8886 56be 24ff de3e
000000e0: 5200 64be 9c09 d4be 2c75 f13c 5261 80bd
000000f0: a554 283d e614 413d 1ff9 30be be52 02be
00000100: 58dd 1bbe c433 d0be 7423 663e ee27 053e
00000110: e724 5dbe 90b5 3cbd 7921 f6bc 6365 45bd
00000120: 1073 c6be dc42 79be d08c bb3e d5a3 81be
00000130: f315 e3bd 2649 c13e 7572 67bd 257e e03e
00000140: 2305 213e 17b1 7bbd e0b5 c5be 5c93 8e3e
00000150: f882 143e 30b3 753e 66e4 e43e 5f58 023e
00000160: 6e8e c7be 22ea 6e3d 22da fabe 8049 8f3e
00000170: 8e6c bbbe fefb 80be 2664 903e 0a47 de3e
00000180: d17c 303d 6663 e43e b3aa 86be 3039 303e
00000190: b670 e43e 280c e43d ec81 99be c1aa d23c
000001a0: c65c c4be 6c1f dcbe ae3e e33e becb adbe
000001b0: 2669 87bd deac b43e aa34 283e ce92 b83e
-0.11992388 0.4295817 -0.28408393 0.21996827 0.1151943 -0.25413442 -0.28659663 -0.33399022
-0.2173099 -0.16733293 -0.27639097 -0.40003097 -0.056422167 0.22114438 -0.08495009 0.3290286
-0.20082925 0.41724557 -0.48000485 0.095406815 0.10349494 0.16432863 -0.23395216 -0.25400633
0.27149302 -0.25751305 -0.04605143 0.2407311 -0.18400005 0.38092303 -0.4144901 -0.0030162816
-0.4002344 0.3997234 0.20650357 -0.015871095 -0.010728666 -0.4647177 -0.31459537 -0.46527994
0.018319497 -0.2848754 0.48497236 0.4373061 0.009009231 0.35163224 0.23262425 0.2926159
-0.36694148 -0.35355598 -0.3769377 -0.022972684 -0.2157933 0.08881816 -0.20949757 0.43554032
-0.22265747 -0.4141358 0.029474817 -0.062685624 0.04109635 0.04713907 -0.17282532 -0.12726876
-0.15221155 -0.40664494 0.22474462 0.13003513 -0.21596108 -0.04607159 -0.030045258 -0.048192393
-0.3875966 -0.24341911 0.3663087 -0.25320306 -0.11088171 0.3775112 -0.05650564 0.4384624
0.15724616 -0.061448183 -0.38615322 0.278468 0.14503086 0.23994136 0.44705504 0.12729023
-0.38975853 0.058328755 -0.48994547 0.27985764 -0.36606258 -0.25192255 0.28201407 0.43413574
0.043087784 0.44607085 -0.26302108 0.17209315 0.44617242 0.11135131 -0.29981935 0.025716187
-0.3835203 -0.42992723 0.44383758 -0.33944505 -0.06611852 0.35288137 0.1642634 0.36049503

U f4 [4, 16]
00000000: d27d 813e 5217 c7be 0e31 fb3e 838f d63e
00000010: d83c debe 90dc 9a3d 375c 4fbd 0035 8c3b
00000020: e84e 163e 9980 c83d 8259 c83e 2afa 963e
00000030: 2190 d83c 8c84 e8be 94a1 b7be 8eb6 b5bd
00000040: af0a 443d 1233 f33e 509f 9a3e 3ed9 88be
00000050: 446e 3cbe a4e8 dcbe dd16 27be 201c d63d
00000060: 38b1 0b3e e832 c6be 960f b3be bdf5 633d
00000070: d84e 693e 70cd ef3d fa42 d8be 3a41 0dbd
00000080: 7880 b9be 4b65 903c 252e 983d 8bda 263e
00000090: 12d6 483e 3975 2abe 349b c43e d5b6 50be
000000a0: 518d aa3e 30ff bd3d 42d3 efbe 5eaa bdbe
000000b0: ca96 a93e 848c d83e 868e 6b3e 6d00 99be
000000c0: 00cb 533d 7f63 f13d a45c c0be fd5a 21be
000000d0: 8751 e2bd 06c5 85bb 05ed 3ebe 7ab1 b4be
000000e0: 3616 813e 96c8 ae3e 8270 c53e 8ad9 cf3e
000000f0: 68cf dd3e 11f5 43be 5a61 8ebe 140e 863e
0.25291306 -0.3888498 0.49060863 0.41906366 -0.43405795 0.075616 -0.050625052 0.004278779
0.14678538 0.09790153 0.3913079 0.29487735 0.026435914 -0.45413625 -0.35865462 -0.0887271
0.04786175 0.474999 0.3019967 -0.26728243 -0.18401438 -0.4314624 -0.16317315 0.10454583
0.13641822 -0.38710713 -0.3497283 0.055654276 0.22783983 0.11709106 -0.422386 -0.034486033
-0.36230826 0.017626425 0.07430676 0.16294305 0.19612911 -0.1664628 0.3839966 -0.20382245
0.3331094 0.09277189 -0.46840864 -0.37044042 0.33122855 0.42294705 0.23003587 -0.29883137
0.051707268 0.117865555 -0.3757068 -0.15757366 -0.11050706 -0.004082325 -0.18645103 -0.35291654
0.25212258 0.3413741 0.385624 0.40595657 0.433223 -0.19136454 -0.27808648 0.26182616

hid_bias f4 [16]
00000000: 1f74 9e3d c372 23be c8c4 bfbe fe9d 973e
00000010: 625f a7be 4753 9bbd 29e6 febd 03b1 673e
00000020: bc32 f9be a934 7ebe 5b61 3cbe 4ec3 e0be
00000030: c423 bd3e 9409 99be 4748 823d 3850 cd3e
0.07736992 -0.15961747 -0.3745482 0.29612726 -0.3268996 -0.07584243 -0.12446243 0.22626118
-0.4867152 -0.24824776 -0.18396513 -0.43899006 0.3694135 -0.2989012 0.06361442 0.40100265

V f4 [4, 7]
00000000: f32a 283d 3ae7 ffbe 089f c03e ccfd c9be
00000010: 060d d13d 907c 9bbe 5cb7 d03e 673c b83c
00000020: 16a1 803e 288f cd3e 4d2b 2d3e 6aab a73e
00000030: 7eee f13e 0016 b9be c819 c63e e3bc 70bd
00000040: c4ec 913e b2e6 b4be b031 de3e d1b1 713e
00000050: 1093 9a3e 5e54 dcbd 4665 8abe 7c3c d93e
00000060: d6eb ad3e 54a1 e73e fea9 f1be ea1f 9a3e
0.041056585 -0.499811 0.3762133 -0.39451444 0.10207562 -0.3036847 0.40764892 0.02248974
0.251229 0.40148282 0.16911049 0.32747966 0.47252268 -0.36149597 0.38691545 -0.058773886
0.2850095 -0.35332257 0.43397284 0.23602988 0.30190325 -0.10758279 -0.2703039 0.42428958
0.3396899 0.4524027 -0.47200006 0.30102473

out_bias f4 [7]
00000000: 33c3 573e afb5 71be 82d1 aa3e f6ad bb3d
00000010: 3377 45be 51aa 0bbe b790 62be
0.21070556 -0.23604463 0.33362967 0.0916404 -0.19283752 -0.1363919 -0.22125517
