hw1/net/reber_srn2_40.pth (torch, 2071 bytes, 6 tensors)

H0 f4 [2]
1.4889545 1.3326162
00000000: 1096 be3f 2b93 aa3f

W f4 [7, 2]
-2.115866 2.6812217 1.0528077 0.8754358 0.5110266 -4.816595 1.035406 -0.22966345
-0.03309465 2.8277776 -4.48661 -0.31549975 -3.7992396e-38 1.3496444e-38
00000000: 596a 07c0 2399 2b40 67c2 863f 901c 603f
00000010: a4d2 023f 8c21 9ac0 2f88 843f e52c 6bbe
00000020: 418e 07bd 4ffa 3440 4f92 8fc0 2f89 a1be
00000030: acd9 4e81 98f6 9200

U f4 [2, 2]
-1.3557265 1.8422036 -1.8337613 0.6126605
00000000: 7288 adbf 54cd eb3f b1b8 eabf 52d7 1c3f

hid_bias f4 [2]
0.6621643 -0.72694093
00000000: 9983 293f cd18 3abf

V f4 [2, 7]
0.47653878 -1.5755723 5.1951118 4.480254 -4.928012 -0.6579853 -2.624832 -1.2029756
4.3163896 -2.489262 -3.1740956 2.108434 0.13527682 -13.134961
00000000: e4fc f33e 5aac c9bf 5b3e a640 3e5e 8f40
00000010: 46b2 9dc0 ba71 28bf 3ffd 27c0 1bfb 99bf
00000020: dd1f 8a40 1250 1fc0 6224 4bc0 95f0 0640
00000030: 0286 0a3e cd28 52c1

out_bias f4 [7]
-5.0905724 -0.36474276 0.031149719 0.27387726 -1.3212954 2.6905544 -6.928903
00000000: f8e5 a2c0 90bf babe b22d ff3c a439 8c3e
00000010: 3520 a9bf 0b32 2c40 93b9 ddc0
